app/src/main/assets/kematian_predict.tflite (tflite, 10744 bytes, 2 tensors)

arith.constant f4 [32, 64]
0.070937335 0.18096995 0.12716496 0.026386082 0.18291831 -0.011066854 -0.17837393 0.0745939
-0.027506053 0.034493506 -0.102389455 0.20893425 0.03048712 -0.24641865 0.14929235 -0.22556943
-0.18184274 0.1799745 -0.2249788 0.15482235 -0.020555735 -0.0241611 0.17009312 -0.040792227
-0.07286507 0.020903885 -0.041724384 -0.1853087 -0.22048843 0.08886665 -0.19199038 -0.029266775
0.099799156 -0.005063832 0.032426596 0.1608854 0.2387057 -0.13297313 -0.14444286 -0.05651045
0.05683559 0.19822276 0.22284275 -0.231076 -0.026477873 -0.031753898 -0.21951014 -0.15435147
0.043156624 0.15920204 0.1192649 -0.14416355 -0.15491974 0.1633054 -0.047514737 0.17557567
-0.018305898 0.020648599 -0.05910027 -0.06258309 0.2130099 -0.23317915 0.18471557 -0.01613611
-0.17219567 -0.12396312 -0.1389159 -0.08757955 -0.0015100837 0.23854554 0.1503756 -0.22214544
0.13753432 -0.17405486 0.0011328459 0.0066064 -0.021372378 -0.094641626 -0.10921872 0.08259761
0.14075506 0.021040738 -0.13381034 -0.24676639 0.1212101 -0.19674087 0.08088648 -0.21609157
0.17416102 0.02297008 0.009119868 -0.17821008 0.22413498 -0.18533963 -0.10586262 -0.1548897
0.16670531 -0.09828943 -0.20053524 0.119794965 -0.028360128 0.08191013 0.047736585 -0.08062726
-0.1561321 0.12139118 -0.0058143735 0.22840744 -0.15100634 0.06778467 0.22780281 -0.1965496
-0.011602104 0.052726448 0.14651191 -0.08033377 -0.06868714 0.20042324 -0.09780854 -0.12864554
-0.03867787 0.16069448 -0.09090215 -0.09269011 0.15074015 -0.0044633746 0.21702915 0.12502992
0.22292459 -0.03539723 -0.07228458 0.21864551 0.06946367 0.15321147 -0.07229167 -0.079043865
0.12098378 0.023526669 0.09670472 0.15504694 -0.15930647 -0.24290693 0.17585188 -0.13404208
0.24521202 0.053374767 0.0058293343 0.018486142 -0.028512478 -0.12455791 -0.20498669 0.18809116
-0.16663533 0.0012452006 0.1957947 0.21468937 -0.16847831 0.19195563 0.016264856 0.1642738
-0.105843306 -0.0927906 -0.24057335 -0.1074847 0.17721254 -0.17095035 0.21474993 -0.10628086
0.20294803 -0.09066248 -0.2112962 0.11618239 -0.1401909 0.0050085187 -0.027283907 0.12681955
-0.08683157 0.12014204 -0.21247172 0.24334753 0.21801859 -0.12522155 -0.11526692 0.18094635
0.030388594 -0.06133753 -0.1978997 -0.063649476 -0.24331999 -0.2306397 -0.10150993 0.0610075
-0.02316165 0.058618963 -0.17586035 -0.1992532 0.20381385 0.22567439 0.056946456 0.23049754
-0.026933134 -0.24450892 -0.12625444 0.06751025 -0.064920425 -0.04111719 0.049116373 0.21121395
-0.20449984 -0.113536775 0.16145253 -0.042411447 -0.09541589 0.1861664 -0.18979234 0.20946205
-0.16893256 0.10733992 -0.002983451 0.17059672 0.089989305 0.064861774 0.085915625 -0.015918672
0.08098012 -0.08279967 0.05755061 -0.05440885 -0.09403396 -0.15365207 0.18305755 -0.04503107
0.06399959 0.09137601 -0.17871225 -0.060199738 0.1335085 -0.20703065 -0.1086185 -0.19886869
-0.22014785 -0.23762 0.046845436 -0.0010646582 0.10086733 -0.13711727 -0.15215707 -0.18856573
-0.11547363 -0.020348132 -0.17120934 0.20240062 0.106322825 -0.07084483 0.10010326 -0.12995118
00000000: 9847 913d 3050 393e 8837 023e a027 d83c
00000010: f04e 3b3e c051 35bc a8a7 36be b0c4 983d
00000020: 6054 e1bc 1049 0d3d 90b1 d1bd dcf2 553e
00000030: 20c0 f93c 2c55 7cbe 18e0 183e acfb 66be
00000040: fc34 3abe 3c4b 383e d860 66be c089 1e3e
00000050: 8064 a8bc 80ed c5bc e42c 2e3e c015 27bd
00000060: 483a 95bd a03e ab3c 30e7 2abd 90c1 3dbe
00000070: b8c7 61be b8ff b53d 2099 44be e0c0 efbc
00000080: 8063 cc3d 80ee a5bb c0d1 043d 24bf 243e
00000090: 446f 743e 1c2a 08be d4e8 13be 8077 67bd
000000a0: 70cc 683d e8fa 4a3e e430 643e 309f 6cbe
000000b0: 20e8 d8bc 6010 02bd 44c7 60be 500e 1ebe
000000c0: 00c5 303d dc05 233e 2841 f43d 9c9f 13be
000000d0: 48a3 1ebe 8839 273e d09e 42bd 1cca 333e
000000e0: 40f6 95bc 4027 a93c 2013 72bd 902b 80bd
000000f0: 441f 5a3e 84c6 6ebe 1426 3d3e e02f 84bc
00000100: 1054 30be 60e0 fdbd f83f 0ebe e85c b3bd
00000110: 00ee c5ba 4845 743e 10fc 193e 187a 63be
00000120: ccd5 0c3e 703b 32be 007c 943a 807a d83b
00000130: 2015 afbc 78d3 c1bd 10ae dfbd f028 a93d
00000140: 1822 103e a05d ac3c 9405 09be 54b0 7cbe
00000150: 003d f83d 7076 49be d0a7 a53d 1c47 5dbe
00000160: 4457 323e c02b bc3c 806b 153c b47c 36be
00000170: a483 653e acc9 3dbe 80ce d8bd 689b 1ebe
00000180: ccb4 2a3e f84b c9bd 1c59 4dbe 1057 f53d
00000190: 8053 e8bc 80c0 a73d 7087 433d e81f a5bd
000001a0: 18e1 1fbe f09b f83d 8086 bebb a4e3 693e
000001b0: 68a1 1abe b0d2 8a3d 2445 693e 4c44 49be
000001c0: c016 3ebc b0f7 573d 3807 163e 0886 a4bd
000001d0: d8ab 8cbd c03b 4d3e d84f c8bd a8bb 03be
000001e0: b06c 1ebd 188d 243e e82a babd 50d4 bdbd
000001f0: a05b 1a3e 8041 92bb e43c 5e3e d807 003e
00000200: 5846 643e b0fc 10bd f009 94bd 9ce4 5f3e
00000210: f842 8e3d 78e3 1c3e a80d 94bd c0e1 a1bd
00000220: 58c6 f73d 00bb c03c 200d c63d a0c4 1e3e
00000230: 3c21 23be 98bc 78be 8412 343e 5442 09be
00000240: dc18 7b3e 809f 5a3d 0004 bf3b 4070 973c
00000250: 0093 e9bc 3818 ffbd 08e8 51be f89a 403e
00000260: 74a2 2abe 0036 a33a 687e 483e 88d7 5b3e
00000270: 9485 2cbe 0490 443e e03d 853c 6437 283e
00000280: 60c4 d8bd 0009 bebd dc58 76be f020 dcbd
00000290: 3477 353e 9c0d 2fbe 68e7 5b3e c8a9 d9bd
000002a0: 9cd1 4f3e 40ad b9bd 085e 58be 08f1 ed3d
000002b0: 348e 0fbe 801e a43b 8082 dfbc fcdc 013e
000002c0: c0d4 b1bd 080d f63d 3092 59be 1830 793e
000002d0: 4440 5f3e 143a 00be 1011 ecbd 004a 393e
000002e0: 80f1 f83c 103d 7bbd 38a6 4abe a85a 82bd
000002f0: e028 79be d02c 6cbe 70e4 cfbd 00e3 793d
00000300: 80bd bdbc 701a 703d bc14 34be 0809 4cbe
00000310: 94b4 503e 3017 673e b040 693d 8c07 6c3e
00000320: e0a2 dcbc 8c60 7abe d848 01be d042 8a3d
00000330: 00f5 84bd 806a 28bd 402e 493d 7848 583e
00000340: 6868 51be f885 e8bd d053 253e a0b7 2dbd
00000350: 6869 c3bd 68a2 3e3e ec58 42be 387d 563e
00000360: a8fc 2cbe 08d5 db3d 0086 43bb e8b0 2e3e
00000370: 504c b83d 40d6 843d 88f4 af3d e067 82bc
00000380: e8d8 a53d e092 a9bd 30ba 6b3d d0db 5ebd
00000390: e094 c0bd f856 1dbe 7073 3b3e 8072 38bd
000003a0: 3812 833d 5823 bb3d 5800 37be 0094 76bd
000003b0: 74b6 083e d8ff 53be 6073 debd 3ca4 4bbe
000003c0: 706e 61be a852 73be 00e1 3f3d 008c 8bba
000003d0: 8893 ce3d 7868 0cbe 10cf 1bbe 6017 41be
000003e0: 707d ecbd 20b1 a6bc 8051 2fbe 1c42 4f3e
000003f0: c8bf d93d 1817 91bd f002 cd3d ec11 05be

sequential_1/dense_1/MatMul f4 [64, 5]
0.095152795 0.27671558 -0.17101711 0.1990166 -0.28192416 0.14816314 -0.10217367 0.093491316
-0.2588542 -0.20120502 0.07889661 0.16320944 -0.21729013 0.16624877 0.006129265 -0.19602193
-0.29487336 -0.20567955 0.10617602 0.15827665 -0.24585398 0.1552175 -0.22738689 -0.038444757
0.010756016 0.2183932 0.004616201 -0.06707539 0.025981873 0.13118437 0.023081183 0.21197271
0.029607117 -0.13348246 0.06639758 -0.17650019 -0.022336364 0.27679694 -0.14294927 -0.11008631
0.05413279 0.25369865 -0.071622625 0.25475526 -0.088073984 -0.19006598 -0.08677304 -0.22395626
0.21412647 -0.2634211 0.15066168 0.21032214 0.2139026 -0.15174355 0.10675803 0.045933515
-0.12960172 0.26634377 -0.20444146 0.20908052 0.07794115 0.035607994 0.25345123 -0.016478777
0.20499068 -0.057585508 -0.24908614 -0.040765494 -0.13190915 -0.14394017 0.28502864 -0.066971764
0.056317687 0.21655232 0.29074144 -0.2092385 0.06553471 0.06294957 0.27729774 0.08076513
-0.112540185 0.14881566 -0.08588135 0.044967383 0.081092834 -0.13126157 0.2801547 0.17642131
0.0321652 0.0972299 0.13946176 -0.08889662 -0.23059854 -0.15419877 -0.2113576 0.037960976
-0.2705666 -0.26267028 -0.19259958 0.23285657 -0.15947191 0.1483432 -0.06730732 -0.101349115
0.28300023 0.28961682 0.13253558 -0.2778728 0.16218466 0.05274102 0.031965524 0.063142
-0.058479726 0.11162099 -0.27735794 0.06638259 -0.16319439 -0.045777306 -0.17071001 0.2662071
-0.24292251 -0.014761418 -0.18539457 0.09117776 0.14376199 0.047024935 -0.23414849 0.27982062
-0.24682695 -0.29056832 0.05974424 -0.25646335 -0.052839875 -0.11814369 -0.19113539 0.08843309
-0.026042193 -0.22569941 0.23097289 0.22125131 -0.07489741 0.02883184 0.19983509 0.15519747
0.06765887 0.1238071 -0.045831367 0.14876735 -0.11297123 0.1860759 0.09413469 -0.08867945
0.03243339 -0.27515623 -0.058285132 0.18079019 -0.10998225 0.19237235 0.17863867 0.00036790967
-0.23103899 -0.15041997 -0.092657 0.08108333 0.19598988 -0.08378814 -0.24339573 -0.0052090287
-0.1756563 0.27579987 -0.24308716 -0.09302449 0.1561754 -0.15911216 -0.25299755 -0.28014225
0.21721202 -0.14176743 0.1968481 -0.19729573 -0.19784784 0.26895732 0.1392954 -0.061963454
-0.020359725 -0.26626158 0.13280386 0.033298224 0.1387637 -0.1338562 -0.1166303 0.12989995
0.23368591 -0.28187698 0.22093898 0.2011359 -0.23867491 0.19495833 0.15562451 0.26921165
-0.15375373 -0.088502064 0.047753304 0.09084648 0.14721516 0.28251332 -0.09440276 0.13067466
0.17609662 0.031084657 0.18189293 0.08681971 0.23342407 -0.26153246 -0.17717414 -0.0717219
-0.13108608 -0.2137586 0.042334437 -0.24238227 0.26027262 -0.26274213 0.064911306 0.001992315
-0.013676643 -0.04349631 0.27686882 -0.11158845 0.2291215 0.12249878 -0.2522215 0.026670843
0.26833838 -0.21107243 0.033026427 -0.23003341 0.16933146 0.2504061 0.07293475 -0.20760249
0.23964834 -6.875396e-05 -0.1464481 0.019316316 0.19879586 0.26593345 -0.09870133 0.104616225
-0.10975903 0.07657027 -0.07838823 -0.16287006 -0.06573403 0.24004716 0.25779688 -0.14089993
00000000: 78df c23d aaad 8d3e 1c1f 2fbe 02cb 4b3e
00000010: 5d58 90be 14b8 173e 6e40 d1bd 6078 bf3d
00000020: 8a88 84be b008 4ebe 8c94 a13d 6020 273e
00000030: 4e81 5ebe 1e3d 2a3e 00d8 c83b f9b9 48be
00000040: a4f9 96be a99d 52be d072 d93d 4613 223e
00000050: 25c1 7bbe 56f1 1e3e 1cd8 68be 4078 1dbd
00000060: 003a 303c 78a2 5f3e 8043 973b d25e 89bd
00000070: f0d7 d43c 3255 063e c014 bd3c 600f 593e
00000080: a08a f23c a0af 08be 74fb 873d 77bc 34be
00000090: c0fa b6bc 54b8 8d3e 4b61 12be ee74 e1bd
000000a0: 58ba 5d3d cae4 813e e2ae 92bd 486f 823e
000000b0: 2260 b4bd a8a0 42be 10b6 b1bd ca54 65be
000000c0: f843 5b3e 21df 86be 0e47 1a3e b05e 573e
000000d0: 4809 5b3e a962 1bbe f4a3 da3d c824 3c3d
000000e0: 50b6 04be 365e 883e 1a59 51be 3419 563e
000000f0: 9c9f 9f3d b0d9 113d 5cc4 813e 80fe 86bc
00000100: 14e9 513e c8de 6bbd 7010 7fbe b8f9 26bd
00000110: 3113 07be 0d65 13be 46ef 913e 7e28 89bd
00000120: 60ad 663d e4bf 5d3e 10dc 943e 9e42 56be
00000130: 1037 863d b4eb 803d f8f9 8d3e 3068 a53d
00000140: 787b e6bd 2263 183e 90e2 afbd b82f 383d
00000150: 0014 a63d 6f69 06be 7070 8f3e caa7 343e
00000160: a8bf 033d 7820 c73d 10cf 0e3e 6e0f b6bd
00000170: 0622 6cbe 48e6 1dbe 206e 58be f87c 1b3d
00000180: b587 8abe b87c 86be d338 45be f471 6e3e
00000190: 9b4c 23be 48e7 173e 6cd8 89bd 2090 cfbd
000001a0: 68e5 903e a848 943e 68b7 073e 5845 8ebe
000001b0: bc13 263e f806 583d 48ee 023d 9850 813d
000001c0: 7088 6fbd 8c99 e43d dc01 8ebe 98f3 873d
000001d0: 6e1c 27be fc80 3bbd 9bce 2ebe 4c4c 883e
000001e0: aec0 78be e0d9 71bc 13d8 3dbe 68bb ba3d
000001f0: 5836 133e 389d 403d 9fc4 6fbe a644 8f3e
00000200: 34c0 7cbe 5fc5 94be 60b6 743d 2a4f 83be
00000210: a06e 58bd 52f5 f1bd ffb8 43be 681c b53d
00000220: 7056 d5bc bf1d 67be 2884 6c3e b48f 623e
00000230: d063 99bd c030 ec3c 92a1 4c3e 16ec 1e3e
00000240: bc90 8a3d 948e fd3d acb9 3bbd 7856 183e
00000250: 765d e7bd ae8a 3e3e b0c9 c03d 929d b5bd
00000260: e0d8 043d 47e1 8cbe 64bc 6ebd 1021 393e
00000270: 603e e1bd 42fd 443e 0eed 363e 00e4 c039
00000280: 7c95 6cbe b107 1abe f4c2 bdbd 040f a63d
00000290: 92b1 483e 1e99 abbd bb3c 79be 80b0 aabb
000002a0: 3fdf 33be a435 8d3e d7eb 78be a083 bebd
000002b0: 72ec 1f3e 4cee 22be e588 81be ce6e 8fbe
000002c0: d46c 5e3e 7b2b 11be 8c92 493e e407 4abe
000002d0: a098 4abe c6b4 893e 74a3 0e3e 64cd 7dbd
000002e0: 70c9 a6bc 7053 88be bcfd 073e b863 083d
000002f0: 1218 0e3e 9a11 09be dedb eebd 7e04 053e
00000300: 5c4b 6f3e 2e52 90be d43d 623e 92f6 4d3e
00000310: 3267 74be 28a3 473e 085c 1f3e 1cd6 893e
00000320: 9e71 1dbe 9240 b5bd f898 433d b80d ba3d
00000330: 92bf 163e 96a5 903e 3c56 c1bd 94cf 053e
00000340: ac52 343e 40a5 fe3c 2442 3a3e 88ce b13d
00000350: b806 6f3e 95e7 85be 236d 35be eee2 92bd
00000360: 6e3b 06be 89e3 5abe e066 2d3d 0f33 78be
00000370: 7442 853e 2386 86be 38f0 843d 8091 023b
00000380: 0014 60bc 3029 32bd c0c1 8d3e 7c88 e4bd
00000390: d49e 6a3e a4e0 fa3d 2d23 81be d07c da3c
000003a0: a663 893e 5f23 58be b846 073d e18d 6bbe
000003b0: 3a65 2d3e 3a35 803e d05e 953d bf95 54be
000003c0: 6066 753e 0030 90b8 7ef6 15be 403d 9e3c
000003d0: 2491 4b3e 6e28 883e ec23 cabd 0841 d63d
000003e0: 58c9 e0bd e0d0 9c3d 028a a0bd 69c7 26be
000003f0: 909f 86bd ecce 753e f4fd 833e 1248 10be
