UAS-221351151/kematian_predict.tflite (tflite, 10764 bytes, 2 tensors)

arith.constant f4 [32, 64]
00000000: 1846 f83d f0ab 7e3d 504d dabd bc17 02be
00000010: 4003 7dbc 3031 63bd f0e6 843d 7083 8dbd
00000020: 0c48 7ebe fc04 5fbe f84d abbd 304d 2abd
00000030: 240d 673e 2068 6d3d 10c2 42be 1439 7cbe
00000040: 20cd 313e 60e6 903c 40d4 ea3d 8c4d 1bbe
00000050: 1015 0b3d f8d1 f63d 8cc6 2b3e a8f9 093e
00000060: 80eb 633e 8028 33bd bc29 673e b023 e6bd
00000070: 30c7 52bd d803 d9bd 006f 69bc 64d8 203e
00000080: 704d 5cbd 98c0 98bd 302d 7e3e 906b 3d3d
00000090: ec46 77be 804b e3bd 30c6 273e ac15 583e
000000a0: 0078 a1bc ac54 2abe b47b 20be a019 64be
000000b0: 7828 44be 2082 803c d4e7 2bbe 007b 783c
000000c0: 609d a93c 5c12 0abe d06f 3c3d 404f 093e
000000d0: 3478 2fbe 8850 9fbd 68a1 8c3d d895 45be
000000e0: 00f3 ffbd 04c6 3e3e d0c3 16bd a00b 32be
000000f0: 5c21 5b3e e812 73be a0a2 153d 748b 7dbe
00000100: 6840 42be a0d6 6d3d 2003 203d 2011 32be
00000110: e0c4 a03c c838 13be 5067 973d 5831 143e
00000120: 10c5 843d 28bf b43d 3c60 333e a4ff 263e
00000130: 883f 46be b806 20be d01f 70be 80db 24bc
00000140: 6033 f53c a01d c3bc e8c1 cb3d 9068 f0bd
00000150: a0b0 1b3d a061 e6bc 9045 bebd bccb 5dbe
00000160: f873 18be a0d5 663e dc86 083e 708b 1a3e
00000170: f804 923d 8095 77bc 7064 793e f861 34be
00000180: 7085 74be b04a fb3d ec2a 353e 10ca b8bd
00000190: 408a 8b3d 6883 e53d f0aa 303e b072 0d3d
000001a0: 7828 0c3e c84c 033e 7cd2 4a3e a024 c33c
000001b0: 84c6 1bbe 589b fcbd e022 5f3d f8c9 da3d
000001c0: e01f d53d 80b4 b13d b81a 04be 586d 2abe
000001d0: b0bc 2bbd c89b 5fbe 1014 3c3d e072 08be
000001e0: 60d1 67be b404 44be d8dd cbbd 502d d2bd
000001f0: e084 2bbe 402c e93d 00b7 f4bb e86e e73d
00000200: d090 39be a055 6abe 007f cb3d 0072 473c
00000210: c0aa 89bd 789b 543e 80f1 7bbc 386e ca3d
00000220: 0083 843c 00f9 69bc 00af 6b3e 805f 1cbe
00000230: 8076 a53d 50d1 a5bd 30da 363d 50b9 283e
00000240: b0db 333d a004 933d a094 c4bd 58a5 e23d
00000250: 683d ecbd 7884 4ebe c8d5 55be 809f 7abd
00000260: 18e7 113e fcc4 57be e048 9c3c 0cda 0dbe
00000270: 184d 47be a0c9 043d 5c57 7abe 60c6 f5bc
00000280: d827 133e dcfc 003e 30e5 00bd 0050 f13c
00000290: c050 06be 5cbb 44be 40ae 773d 0051 4a3c
000002a0: f880 fb3d 080e 1cbe 9079 48be 28b4 2b3e
000002b0: ecf1 7d3e c8ee 553e 70d0 68be 308a 463e
000002c0: c0a4 f0bc f4c5 79be 949e 6dbe 4009 4ebc
000002d0: ec21 5abe 5481 1a3e e427 5abe 7897 c2bd
000002e0: c026 e23c 28ff 37be b0fc a4bd 5cb0 463e
000002f0: a019 4a3d 007c 5dbb 30bc a1bd 8094 6f3e
00000300: 481b 23be dc05 12be 003b 083d 4ce5 1d3e
00000310: 7834 8f3d cc9d 3cbe c01d d13c 60bb 2e3d
00000320: 580a ef3d dc67 3abe e032 78be b0e7 90bd
00000330: 80c3 63bd 0867 0f3e 88cf 47be 74e2 2d3e
00000340: c0ca 893d a0da 5b3e c050 28be 0cf5 7abe
00000350: cc68 583e 7850 203e 1078 65be 3079 723e
00000360: 7880 db3d acaa 36be 007c 713d 6820 88bd
00000370: 000e 433e c0d6 633d 080f 2bbe c001 aabc
00000380: 6078 d9bc d0c7 23bd 3079 57bd 5892 b03d
00000390: 705f 29bd bcc0 433e 20db 5c3d 38e7 733e
000003a0: e013 78bd 64c8 693e b04c dd3d 60aa 1c3d
000003b0: a0e0 11be d8dc 8ebd 0891 473e 706c 643d
000003c0: d43e 78be b8a1 67be 30a2 6abd b02d 88bd
000003d0: 6040 88bc 08d6 bdbd e02f 493d 9cee 553e
000003e0: 18db fc3d f803 913d 086c 4abe 0051 ee3c
000003f0: 385d eb3d c0f1 bf3d 6c44 1d3e 00d2 5bbe
0.12122744 0.06217569 -0.106592774 -0.12704366 -0.015442669 -0.05546683 0.0648936 -0.06909835
-0.24832171 -0.21779245 -0.08364481 -0.041577518 0.22563607 0.05796063 -0.19019341 -0.24631149
0.17363405 0.017687976 0.11466265 -0.151663 0.033955634 0.12051767 0.16774958 0.13474143
0.22257805 -0.043739796 0.22574514 -0.112372756 -0.05145949 -0.10596436 -0.014247656 0.15707546
-0.053784788 -0.07458609 0.24821925 0.046245158 -0.24148148 -0.11098385 0.16384196 0.21102017
-0.01971054 -0.16633862 -0.15672189 -0.222754 -0.19156063 0.015687048 -0.16787654 0.015166044
0.020704925 -0.13483566 0.04600507 0.13409138 -0.17135698 -0.07779032 0.06866723 -0.19295442
-0.124975204 0.18630224 -0.036807835 -0.17387247 0.21399444 -0.23737681 0.036532044 -0.24760228
-0.18969882 0.05806601 0.03906548 -0.17389345 0.019625127 -0.14377129 0.07392752 0.14471948
0.06482899 0.08825523 0.17517179 0.16308457 -0.19360173 -0.15627563 -0.23449636 -0.0100620985
0.029931724 -0.023817837 0.09949094 -0.11738694 0.03801024 -0.028122723 -0.09290612 -0.2165975
-0.14887989 0.22542429 0.13332695 0.15092254 0.07129854 -0.015111327 0.2435472 -0.17615497
-0.23879027 0.12270105 0.17692155 -0.09022915 0.068134785 0.112067044 0.17252707 0.034533203
0.13687313 0.12822258 0.19806856 0.023821175 -0.15212446 -0.12334317 0.05447662 0.10683054
0.1040647 0.08677006 -0.12900817 -0.16643274 -0.041927993 -0.2183677 0.04591757 -0.13325071
-0.22638464 -0.19142419 -0.09954423 -0.10262549 -0.16749907 0.11385393 -0.0074681044 0.113004506
-0.18121648 -0.22884226 0.09936333 0.012173176 -0.06722021 0.20762432 -0.015377402 0.09884304
0.016175747 -0.014280558 0.23015976 -0.15270805 0.08079243 -0.08096564 0.044641674 0.16476941
0.043910682 0.071786165 -0.095986605 0.11066693 -0.1153515 -0.2016772 -0.20882332 -0.061187267
0.14248312 -0.21071237 0.019077718 -0.1385271 -0.19463003 0.032418847 -0.24447387 -0.03000182
0.14370668 0.12596458 -0.03146857 0.029457092 -0.13116741 -0.19212097 0.060468912 0.0123484135
0.12280458 -0.15239727 -0.19577622 0.16767943 0.24799317 0.20891869 -0.22735763 0.19388652
-0.029375434 -0.2439192 -0.23205024 -0.012575448 -0.21302003 0.15088397 -0.2130428 -0.095015466
0.027606368 -0.17968428 -0.08056009 0.19403213 0.049340844 -0.0033795834 -0.07897222 0.23396492
-0.15928376 -0.14260048 0.03325939 0.15419501 0.069924295 -0.1841957 0.025526881 0.042659163
0.11671895 -0.18203682 -0.24238157 -0.07075441 -0.055606365 0.14004147 -0.1951276 0.16980916
0.067281246 0.21470118 -0.16437054 -0.2450754 0.21133727 0.15655696 -0.22409081 0.23679042
0.10717863 -0.17838544 0.058956146 -0.06646806 0.1904831 0.055624723 -0.16704953 -0.020752788
-0.026546657 -0.039985478 -0.052605808 0.08621663 -0.041350782 0.19116491 0.05391991 0.23818672
-0.06056583 0.22830349 0.108056426 0.03824842 -0.14245844 -0.06975716 0.19488919 0.055767477
-0.24242717 -0.22620285 -0.05728358 -0.06649339 -0.016632259 -0.09269339 0.049117923 0.20891804
0.12346476 0.07080835 -0.19767773 0.029091358 0.114923894 0.09372282 0.15358132 -0.21466827

sequential_6_1/dense_18_1/MatMul f4 [64, 5]
00000000: e963 7abe e27c 50be 5cda e33d c0e4 dbbd
00000010: b5e5 35be 53bc 79be 28eb 9c3d fa77 d1bd
00000020: 2e2a 60be 5021 89bc 0017 05bb f036 193d
00000030: f1b6 91be e6fc 393e 10f3 35bd f3d1 69be
00000040: 90f0 f03c a448 57be 0e27 90be 8235 363e
00000050: c06d 3cbc c421 823d e0ad 973d 0cec 8f3d
00000060: 0018 643c 1c21 62bd 48f4 fd3d 80d1 fa3d
00000070: bd3c 7cbe 909e 9ebc 3ccb 163e 149d f13d
00000080: 72db 85be 80df 9ebb 1cf0 473e f4da 963e
00000090: 9431 833e 0633 1e3e 500b d73c d67e 873e
000000a0: 20d1 d43c 4049 c7bc e863 24bd f45b 6c3e
000000b0: 8c7a b83d 4820 5f3d 68e7 0b3d 0e5f 43be
000000c0: ebfc 84be 20b2 603e 0889 61be 408d 043d
000000d0: 84db b83d 8056 283b d3d0 1ebe f86d d5bd
000000e0: c06e fb3b 1341 76be eee5 433e a418 053e
000000f0: c414 72be d094 673e 3071 14bd c077 93bc
00000100: c639 4d3e 86bc 2e3e d011 1e3d 0050 09bd
00000110: 38ff 1abd 80ad 3d3d d6b4 aabd ec37 b2bd
00000120: e4af 513e 8ca9 fa3d d415 9f3d e606 cfbd
00000130: b8dc 183d 9816 fe3d 6e34 91be 6a29 1c3e
00000140: 6494 5d3e d222 85be e4e2 643e 20aa abbc
00000150: a022 ce3d c8ab 7f3e d155 28be 4878 933e
00000160: e8f4 fd3d 3cf4 3cbd 5c76 803e d8c2 413e
00000170: 5e03 913e ba8a c0bd ec71 ef3d 7c97 d33d
00000180: 9885 313d d44e 5dbe 6009 a1bc bdfd 6ebe
00000190: af6a 8dbe 20a5 f23c fe2b 80bd a884 053e
000001a0: 4ad4 353e 9840 173e 48fc 55bd 086a 3d3d
000001b0: 6024 c93d b68c 8c3e 1cb8 eebd b098 af3d
000001c0: 54c0 5bbe 00bb 533b 345c 5abe 8a09 a3bd
000001d0: e8d1 f8bd 5c68 c33d b394 0cbe 3ae8 03be
000001e0: 3882 023e 150b 96be 02ed 013e 4c7e fbbd
000001f0: deca adbd 3e9c 873e 80f0 513d 1cdf 5bbe
00000200: 3897 1bbd 8b92 85be 248e 53be 8018 343c
00000210: 9e02 4a3e 00bc c43a 18e6 553d 7c2d 863d
00000220: 8c4a 013e a699 96be 7c17 61be 8aad 083e
00000230: c0b2 4fbc 3853 a23d b07c 32be 9cf0 6c3e
00000240: 0059 85bb 5ced 71bd e66d fabd 203c c13c
00000250: f4bd 8a3d dca2 43bd a668 823e 0047 93be
00000260: 7ce5 813e c407 543e e47d 953d eae2 323e
00000270: 505f 65be 489d 46bd d654 20be 7e3e 193e
00000280: 4c47 6f3e cc56 a2bd 335d 8ebe 7630 bfbd
00000290: fd6e 81be d019 02bd 0c3f 6dbe 8074 67bd
000002a0: c19a 26be 00a4 753d 4a7c 56be 58a9 963e
000002b0: c031 7a3e b486 81bd c723 74be c66b 903e
000002c0: 00ff 643b c002 263d 0c3c 51bd a3c7 86be
000002d0: cae1 4fbe 00bd 943d a663 8c3e 0c6f 16be
000002e0: f02f 023d fcb2 0bbe 5c37 7a3e 84af b83d
000002f0: 367a 213e f99e 8fbe 9030 9d3d 7872 583e
00000300: b6b4 4f3e 8ca6 e13d 4000 aa3b 60ed 01bc
00000310: 6448 053e e915 5abe 7482 eabd b2f6 243e
00000320: 24f3 803d dc96 6f3e 5020 963e e021 2f3c
00000330: cf02 36be 8698 913e e057 553e 8f92 12be
00000340: 70dc 26bd f0a0 233e f498 d4bd c92b 05be
00000350: c8f6 753d 965a 4a3e b603 283e 5207 45be
00000360: 6822 7c3e da1e 4b3e c04b 173e 8b09 21be
00000370: b87e 2cbd 088a d23d a5ef 80be 2022 d43c
00000380: cc0b 59be 088c 273d 72da 89be 51dd 02be
00000390: f80c 903e 78af e0bd 80d6 80bc 28b8 113d
000003a0: 4c86 763e f853 763e eeb8 923e 0a3d 8ebe
000003b0: a042 fa3d 9da3 31be 7467 ac3d e876 0e3e
000003c0: 9a95 8abe e65d 353e 06ae 933e cf2c 93be
000003d0: 94c2 7d3e c89e 083e 5011 b53d 707f 4bbd
000003e0: 801f 2fbc ae9a 1c3e 7e7a 6fbe 627d 893e
000003f0: e4e0 d7bd d85b 7c3d 407d b73b fa76 64be
-0.24452175 -0.20360139 0.11125633 -0.1073699 -0.17763408 -0.24388246 0.0766204 -0.10227962
-0.2189109 -0.016739517 -0.0020307899 0.037405908 -0.28459886 0.1816288 -0.044421256 -0.22833996
0.029411584 -0.21023804 -0.28154796 0.17793849 -0.011500776 0.063540965 0.07406211 0.07027444
0.013921738 -0.055207357 0.124001086 0.1224699 -0.24632545 -0.019362718 0.14725965 0.117975384
-0.26143986 -0.0048484206 0.19525188 0.29463923 0.25623763 0.15449151 0.026250511 0.26463956
0.025978625 -0.02432692 -0.04013434 0.23081952 0.09007749 0.054474145 0.034156233 -0.19079229
-0.2597421 0.2194295 -0.2202493 0.03236127 0.09026244 0.0025686324 -0.15509348 -0.104213655
0.0076731145 -0.24048261 0.1913068 0.12997681 -0.23640734 0.22615361 -0.036240757 -0.018001437
0.2004157 0.17064103 0.038591206 -0.03352356 -0.03784105 0.04630804 -0.08335273 -0.087020725
0.20477253 0.1223937 0.07767835 -0.10108738 0.03731987 0.12406653 -0.28360313 0.15250173
0.21638638 -0.26003128 0.22352177 -0.020955145 0.10065198 0.24967873 -0.16438986 0.28802705
0.12400228 -0.046131358 0.250903 0.18921983 0.2832288 -0.0940146 0.11691651 0.10331628
0.043340296 -0.21612102 -0.01965779 -0.23338981 -0.27620456 0.029619753 -0.06258391 0.13038886
0.17756763 0.14770734 -0.052242547 0.046243697 0.09821391 0.27451104 -0.1165621 0.08574045
-0.21460086 0.0032307506 -0.21324235 -0.07960804 -0.121494114 0.09541389 -0.13728599 -0.12881556
0.12744987 -0.2930533 0.12688068 -0.122799486 -0.084859595 0.2648639 0.05125475 -0.21471828
-0.03798601 -0.26088366 -0.20659691 0.010992169 0.19727561 0.0015009642 0.052221388 0.06551644
0.12626094 -0.294141 -0.21981615 0.1334745 -0.012676895 0.07926029 -0.17430377 0.2313866
-0.0040694475 -0.059064254 -0.12227993 0.02358824 0.06774512 -0.047762737 0.25470465 -0.28765106
0.25370395 0.20706087 0.07299402 0.17469373 -0.2239964 -0.04848984 -0.15657362 0.14965245
0.23367041 -0.079267114 -0.2780548 -0.09335415 -0.2527999 -0.031762898 -0.23168582 -0.056507587
-0.16269971 0.059970856 -0.2094585 0.29426074 0.2443304 -0.06324521 -0.23841773 0.28207225
0.003494203 0.040529966 -0.051082656 -0.26324186 -0.20300975 0.072626114 0.27419776 -0.14690799
0.031783998 -0.13642496 0.2443518 0.09017852 0.15769276 -0.28050974 0.07675278 0.21137416
0.2028378 0.110180944 0.005188018 -0.00793013 0.13015896 -0.2129742 -0.11450663 0.16109732
0.062963754 0.23397392 0.29321527 0.010689229 -0.17774509 0.2843668 0.20834303 -0.1431372
-0.04073757 0.15979362 -0.10380736 -0.13004984 0.060049802 0.19761118 0.16407666 -0.19241074
0.246225 0.19835988 0.1477499 -0.15726297 -0.042113036 0.102802336 -0.25182834 0.025895178
-0.21195906 0.04090503 -0.26924473 -0.12779738 0.28134894 -0.10970968 -0.015727282 0.035576016
0.24074668 0.24055469 0.28656715 -0.27780944 0.12219739 -0.1734757 0.084181696 0.13912547
-0.27067262 0.177116 0.28843707 -0.28745124 0.24781257 0.1334182 0.08841193 -0.04968208
-0.0106886625 0.1529338 -0.23386571 0.26853472 -0.10540941 0.061611027 0.0055996478 -0.22311011
